I 02.01/21:46 main.py:87  ] => PyTorch Version: 1.4.0
I 02.01/21:46 main.py:14  ] Running on GPU2
I 02.01/21:47 crnet.py:202 ] reduction=8
I 02.01/21:47 main.py:25  ] => Model Name: CRNet [pretrained: None]
I 02.01/21:47 main.py:25  ] => Model Config: compression ratio=1/8
I 02.01/21:47 main.py:25  ] => Model Flops: 4.338M
I 02.01/21:47 main.py:25  ] => Model Params Num: 1.054M

I 02.01/21:47 main.py:25  ] *****************************************************************
CRNet(
  (encoder): Encoder(
    (encoder1): Sequential(
      (conv3x3_bn): ConvBN(
        (conv): Conv2d(2, 2, kernel_size=(3, 3), stride=(1, 1), padding=(1, 1), bias=False)
        (bn): BatchNorm2d(2, eps=1e-05, momentum=0.1, affine=True, track_running_stats=True)
      )
      (relu1): LeakyReLU(negative_slope=0.3, inplace=True)
      (conv1x9_bn): ConvBN(
        (conv): Conv2d(2, 2, kernel_size=[1, 9], stride=(1, 1), padding=[0, 4], bias=False)
        (bn): BatchNorm2d(2, eps=1e-05, momentum=0.1, affine=True, track_running_stats=True)
      )
      (relu2): LeakyReLU(negative_slope=0.3, inplace=True)
      (conv9x1_bn): ConvBN(
        (conv): Conv2d(2, 2, kernel_size=[9, 1], stride=(1, 1), padding=[4, 0], bias=False)
        (bn): BatchNorm2d(2, eps=1e-05, momentum=0.1, affine=True, track_running_stats=True)
      )
    )
    (encoder2): ConvBN(
      (conv): Conv2d(2, 2, kernel_size=(3, 3), stride=(1, 1), padding=(1, 1), bias=False)
      (bn): BatchNorm2d(2, eps=1e-05, momentum=0.1, affine=True, track_running_stats=True)
    )
    (encoder_conv): Sequential(
      (relu1): LeakyReLU(negative_slope=0.3, inplace=True)
      (conv1x1_bn): ConvBN(
        (conv): Conv2d(4, 2, kernel_size=(1, 1), stride=(1, 1), bias=False)
        (bn): BatchNorm2d(2, eps=1e-05, momentum=0.1, affine=True, track_running_stats=True)
      )
      (relu2): LeakyReLU(negative_slope=0.3, inplace=True)
    )
    (encoder_fc): Linear(in_features=2048, out_features=256, bias=True)
  )
  (decoder): Decoder(
    (decoder_fc): Linear(in_features=256, out_features=2048, bias=True)
    (decoder_feature): Sequential(
      (conv5x5_bn): ConvBN(
        (conv): Conv2d(2, 2, kernel_size=(5, 5), stride=(1, 1), padding=(2, 2), bias=False)
        (bn): BatchNorm2d(2, eps=1e-05, momentum=0.1, affine=True, track_running_stats=True)
      )
      (relu): LeakyReLU(negative_slope=0.3, inplace=True)
      (CRBlock1): CRBlock(
        (path1): Sequential(
          (conv3x3): ConvBN(
            (conv): Conv2d(2, 7, kernel_size=(3, 3), stride=(1, 1), padding=(1, 1), bias=False)
            (bn): BatchNorm2d(7, eps=1e-05, momentum=0.1, affine=True, track_running_stats=True)
          )
          (relu1): LeakyReLU(negative_slope=0.3, inplace=True)
          (conv1x9): ConvBN(
            (conv): Conv2d(7, 7, kernel_size=[1, 9], stride=(1, 1), padding=[0, 4], bias=False)
            (bn): BatchNorm2d(7, eps=1e-05, momentum=0.1, affine=True, track_running_stats=True)
          )
          (relu2): LeakyReLU(negative_slope=0.3, inplace=True)
          (conv9x1): ConvBN(
            (conv): Conv2d(7, 7, kernel_size=[9, 1], stride=(1, 1), padding=[4, 0], bias=False)
            (bn): BatchNorm2d(7, eps=1e-05, momentum=0.1, affine=True, track_running_stats=True)
          )
        )
        (path2): Sequential(
          (conv1x5): ConvBN(
            (conv): Conv2d(2, 7, kernel_size=[1, 5], stride=(1, 1), padding=[0, 2], bias=False)
            (bn): BatchNorm2d(7, eps=1e-05, momentum=0.1, affine=True, track_running_stats=True)
          )
          (relu): LeakyReLU(negative_slope=0.3, inplace=True)
          (conv5x1): ConvBN(
            (conv): Conv2d(7, 7, kernel_size=[5, 1], stride=(1, 1), padding=[2, 0], bias=False)
            (bn): BatchNorm2d(7, eps=1e-05, momentum=0.1, affine=True, track_running_stats=True)
          )
        )
        (conv1x1): ConvBN(
          (conv): Conv2d(14, 2, kernel_size=(1, 1), stride=(1, 1), bias=False)
          (bn): BatchNorm2d(2, eps=1e-05, momentum=0.1, affine=True, track_running_stats=True)
        )
        (identity): Identity()
        (relu): LeakyReLU(negative_slope=0.3, inplace=True)
      )
      (CRBlock2): CRBlock(
        (path1): Sequential(
          (conv3x3): ConvBN(
            (conv): Conv2d(2, 7, kernel_size=(3, 3), stride=(1, 1), padding=(1, 1), bias=False)
            (bn): BatchNorm2d(7, eps=1e-05, momentum=0.1, affine=True, track_running_stats=True)
          )
          (relu1): LeakyReLU(negative_slope=0.3, inplace=True)
          (conv1x9): ConvBN(
            (conv): Conv2d(7, 7, kernel_size=[1, 9], stride=(1, 1), padding=[0, 4], bias=False)
            (bn): BatchNorm2d(7, eps=1e-05, momentum=0.1, affine=True, track_running_stats=True)
          )
          (relu2): LeakyReLU(negative_slope=0.3, inplace=True)
          (conv9x1): ConvBN(
            (conv): Conv2d(7, 7, kernel_size=[9, 1], stride=(1, 1), padding=[4, 0], bias=False)
            (bn): BatchNorm2d(7, eps=1e-05, momentum=0.1, affine=True, track_running_stats=True)
          )
        )
        (path2): Sequential(
          (conv1x5): ConvBN(
            (conv): Conv2d(2, 7, kernel_size=[1, 5], stride=(1, 1), padding=[0, 2], bias=False)
            (bn): BatchNorm2d(7, eps=1e-05, momentum=0.1, affine=True, track_running_stats=True)
          )
          (relu): LeakyReLU(negative_slope=0.3, inplace=True)
          (conv5x1): ConvBN(
            (conv): Conv2d(7, 7, kernel_size=[5, 1], stride=(1, 1), padding=[2, 0], bias=False)
            (bn): BatchNorm2d(7, eps=1e-05, momentum=0.1, affine=True, track_running_stats=True)
          )
        )
        (conv1x1): ConvBN(
          (conv): Conv2d(14, 2, kernel_size=(1, 1), stride=(1, 1), bias=False)
          (bn): BatchNorm2d(2, eps=1e-05, momentum=0.1, affine=True, track_running_stats=True)
        )
        (identity): Identity()
        (relu): LeakyReLU(negative_slope=0.3, inplace=True)
      )
    )
    (sigmoid): Sigmoid()
  )
)
*****************************************************************

I 02.01/21:47 solver.py:87  ] Epoch: [1/1000][20/500] lr: 2.67e-06 | MSE loss: 5.376e-02 | time: 0.058
I 02.01/21:47 solver.py:87  ] Epoch: [1/1000][40/500] lr: 5.33e-06 | MSE loss: 5.303e-02 | time: 0.039
…
